…
          [0., 0., 0.,  ..., 0., 0., 0.]]],


        [[[0., 0., 0.,  ..., 0., 0., 0.],
          [0., 0., 0.,  ..., 0., 0., 0.],
          [0., 0., 0.,  ..., 0., 0., 0.],
          ...,
          [0., 0., 0.,  ..., 0., 0., 0.],
          [0., 0., 0.,  ..., 0., 0., 0.],
          [0., 0., 0.,  ..., 0., 0., 0.]]],


        [[[0., 0., 0.,  ..., 0., 0., 0.],
          [0., 0., 0.,  ..., 0., 0., 0.],
          [0., 0., 0.,  ..., 0., 0., 0.],
          ...,
          [0., 0., 0.,  ..., 0., 0., 0.],
          [0., 0., 0.,  ..., 0., 0., 0.],
          [0., 0., 0.,  ..., 0., 0., 0.]]]]), tensor([1, 9, 7, 8, 2, 8, 8, 2, 1, 4])]
Net(
  (fc1): Linear(in_features=784, out_features=64, bias=True)
  (fc2): Linear(in_features=64, out_features=64, bias=True)
  (fc3): Linear(in_features=64, out_features=64, bias=True)
  (fc4): Linear(in_features=64, out_features=10, bias=True)
)
Net(
  (fc1): Linear(in_features=784, out_features=64, bias=True)
  (fc2): Linear(in_features=64, out_features=64, bias=True)
  (fc3): Linear(in_features=64, out_features=64, bias=True)
  (fc4): Linear(in_features=64, out_features=10, bias=True)
)
Net(
  (fc1): Linear(in_features=784, out_features=64, bias=True)
  (fc2): Linear(in_features=64, out_features=64, bias=True)
  (fc3): Linear(in_features=64, out_features=64, bias=True)
  (fc4): Linear(in_features=64, out_features=10, bias=True)
)
tensor(0.3842, grad_fn=<NllLossBackward>)
tensor(0.1976, grad_fn=<NllLossBackward>)
tensor(0.0042, grad_fn=<NllLossBackward>)
Accuracy:  0.968
Running your script with the autograd profiler...
[tensor([[[[0., 0., 0.,  ..., 0., 0., 0.],
          [0., 0., 0.,  ..., 0., 0., 0.],
          [0., 0., 0.,  ..., 0., 0., 0.],
          ...,
          [0., 0., 0.,  ..., 0., 0., 0.],
…
